app/core/extensions/grammarly/data/e4.pt (onnx, 27487 bytes, 5 tensors)

0.bias f4 [64]
0	0x3c001d21	0.007819445
1	0x3f852775	1.0402666
2	0x3cea726c	0.028619014
3	0x3e0043e0	0.12525892
4	0x3eb0ab0d	0.345055
5	0xbd3a8236	-0.045534335
6	0xbf57aaa7	-0.8424477
7	0xbea93398	-0.33047175
8	0xbd7797a8	-0.060447365
9	0xbd476a90	-0.04868561
10	0xbfa74f89	-1.3071147
11	0xbfb07176	-1.3784626
12	0x3d8c229d	0.068425395
13	0x3c001d21	0.007819445
14	0x3e27a7e4	0.16372639
15	0xbf9c9942	-1.223427
16	0x3fcdd536	1.6080692
17	0x3b42946a	0.0029690512
18	0x3c001d21	0.007819445
19	0x3c0a5d83	0.0084451465
20	0xbd3ce54d	-0.046117116
21	0xbc902781	-0.017596962
22	0x3fa9f838	1.3278875
23	0x3e0baaf7	0.13639437
24	0x3fa23992	1.2673819
25	0x3df72b65	0.12068824
26	0xbce92c92	-0.028463636
27	0xbfb2bbbc	-1.3963542
28	0xbf0eb5c3	-0.55746096
29	0x3fbf630f	1.4952105
30	0xbd716f05	-0.058943767
31	0x3ede8ef0	0.43468428
32	0x3c53a6e3	0.012918207
33	0xbf5f13e0	-0.871397
34	0xbf95aed2	-1.1693976
35	0xbdb04f45	-0.086088695
36	0x3c6a68a2	0.014307173
37	0xbd9e8d8f	-0.07741844
38	0xbf4da549	-0.8033033
39	0xbe0dcd0c	-0.1384775
40	0xbf88625c	-1.0655017
41	0xbde6d7c1	-0.112716205
42	0x3e9a2102	0.30103308
43	0x3f692373	0.91069716
44	0xbe759443	-0.23982339
45	0xbfb2ea37	-1.3977727
46	0xbf91e0ad	-1.1396691
47	0xbf6c17d1	-0.9222384
48	0x3f83b5a5	1.0289809
49	0x3fbd776c	1.480207
50	0x3faa57af	1.3308009
51	0x3fb71858	1.4304304
52	0x3e3518a9	0.17685188
53	0x3d2866dd	0.041113723
54	0x3f2027b5	0.6256059
55	0xbf33155a	-0.69954455
56	0xbf974a0d	-1.1819474
57	0x3fb25d74	1.393477
58	0x3ea75a5e	0.32686132
59	0x3fe6de0b	1.8036512
60	0x3f2b04f0	0.6680441
61	0x3f8a40fb	1.080108
62	0xbed01f1e	-0.4064874
63	0xbd67e3e1	-0.056613807

0.weight f4 [64, 38]
0	0x3c669132	0.014072703
1	0x3dadc33e	0.08484505
2	0x3daa3ef8	0.083127916
3	0xbde620ca	-0.11236723
4	0xbda0dffa	-0.0785522
5	0xbdee0604	-0.11622241
6	0x3e26b60d	0.16280384
7	0xbe388a49	-0.18021502
8	0x3e2053af	0.15656923
9	0x3df8443a	0.12122388
10	0x3e28915e	0.16461703
11	0xbe38fa01	-0.18064119
12	0x3e14e0ca	0.14538875
13	0xbda28797	-0.07936018
14	0xbe32a719	-0.17446555
15	0xbd248ab6	-0.040171348
16	0x3c7c7573	0.015408861
17	0xbc0534d7	-0.008130274
18	0x3d478a0f	0.048715647
19	0xbd9591d3	-0.073032044
20	0x3d860aba	0.06545015
21	0x3e094294	0.13404304
22	0xbcb691fb	-0.022286406
23	0x3dd05fe5	0.101745404
24	0xbe214aba	-0.15751162
25	0x3e105ffe	0.14099118
26	0xbdf8ee2a	-0.12154801
27	0x3daae725	0.083448686
28	0x3e09a43b	0.13441555
29	0xbe3debb2	-0.18546942
30	0xbc582145	-0.013191526
31	0xbd071d58	-0.03298697
32	0xbd26d5a6	-0.040731095
33	0x3dfd300e	0.12362681
34	0xbd3d33a7	-0.046191838
35	0xbe29f409	-0.16596998
36	0x3caf9143	0.02143157
37	0x3d6286c3	0.0553043
38	0xbe30fa76	-0.17283043
39	0x3e336dac	0.17522305
40	0x3d2cccf5	0.04218765
41	0x3decefde	0.115691885
42	0x3e0bc73f	0.13650225
43	0xbd1d81c9	-0.03845385
44	0x3d7c488b	0.06159262
45	0xbe90d246	-0.28285426
46	0x3e8b13a1	0.27163413
47	0x3e671566	0.22566757
48	0xbf01557c	-0.50521064
49	0xbd49a4d5	-0.04922946
50	0x3e9b970b	0.30388674
51	0x3d5ea9a8	0.054361016
52	0x3dc14bb2	0.09438266
53	0x3f49206b	0.7856509
54	0x3d1b0ccc	0.037854
55	0xbd4ebfd8	-0.050475925
56	0x3ed40e3c	0.4141711
57	0x3d99572e	0.07487331
58	0xbe8ded1a	-0.27719957
59	0x3ef3b31a	0.4759758
60	0x3ea7d7f4	0.32781947
61	0x3e7bbacc	0.24582976
62	0xbf8a3ab1	-1.0799161
63	0x3ee3956d	0.4444994
64	0x3d8129fb	0.06306835
65	0xbe9f760d	-0.31144753
66	0xbebe00f7	-0.3711011
67	0x3d8db219	0.06918735
68	0x3e4fe2c8	0.20301354
69	0xbe70aca0	-0.23503351
70	0xbdf04ca1	-0.11733366
71	0xbe827804	-0.2548219
72	0xbdb5e242	-0.08881046
73	0xbf187084	-0.59546685
74	0xbd6bd0ca	-0.057572164
75	0x3ec225bd	0.37919417
76	0x3e1023de	0.14076182
77	0x3d00a5df	0.031408187
78	0xbe5a8702	-0.21340564
79	0xbf82c30b	-1.0215772
80	0x3d9a83d3	0.07544675
81	0x3e1da5c6	0.15395269
82	0xbf95b564	-1.1695981
83	0xbf08a3c5	-0.5337489
84	0xbddb4cf1	-0.10708035
85	0x3cac21c4	0.021012194
86	0x3c91ba6f	0.017789094
87	0x3d5fb311	0.05461413
88	0xbf2f7a78	-0.6854625
89	0xbcd1583f	-0.025554774
90	0xbf8fbb7c	-1.1229091
91	0x3d2f35b1	0.042775813
92	0xbd9d08ea	-0.07667716
93	0xbdda55ac	-0.10660872
94	0x3d001d23	0.031277787
95	0xbdd46c3f	-0.10372209
96	0x3e3a0b15	0.1816829
97	0xbe0cfa13	-0.1376727
98	0x3d4d2e8e	0.050093226
99	0x3de1bd97	0.110224895
100	0xbee726db	-0.45146832
101	0x3fa88b63	1.3167537
102	0x3e24786e	0.16061565
103	0xbf90c908	-1.131135
104	0xbe5c0fdf	-0.2149043
105	0xbc361428	-0.011113204
106	0x3e325955	0.1741689
107	0xbf44f37f	-0.76934046
108	0xbed9d2db	-0.42543682
109	0xbea77c1a	-0.3271187
110	0xbe880925	-0.26569477
111	0xbee86da3	-0.45396146
112	0xbe04d74b	-0.12972753
113	0x3e951dd4	0.2912432
114	0x3c88ec17	0.016714139
115	0x3de18eeb	0.110135876
116	0xbe4a19d4	-0.19736415
117	0xbe33151d	-0.17488523
118	0x3b0ab6bd	0.002116605
119	0x3e3618b7	0.17782865
120	0x3d812bad	0.063071586
121	0x3da41810	0.08012402
122	0x3dd1a3d2	0.10236324
123	0x3f66505e	0.8996638
124	0x3e2c9721	0.16854526
125	0xbd978a69	-0.073994465
126	0xbe39fd46	-0.18163022
127	0xbe804b53	-0.25057468
128	0xbeacf317	-0.33779213
129	0x3ad91a7f	0.0016563683
130	0x3d906cf8	0.07052034
131	0x3e049dc4	0.12950808
132	0x3ec56420	0.38552952
133	0x3deb321a	0.114841655
134	0x3e92f598	0.28702998
135	0xbf10aca6	-0.5651344
136	0xbcbd3d30	-0.023100466
137	0xbf19ce29	-0.600802
138	0xbec23a38	-0.37935042
139	0xbe3a4f25	-0.18194254
140	0x3e3ab30a	0.1823236
141	0xbf4a5d4b	-0.79048604
142	0xbeab0845	-0.33404747
143	0x3e0e070d	0.13869877
144	0xbd7584cb	-0.059941094
145	0xbf1b7671	-0.607276
146	0xbeaeebfc	-0.34164417
147	0xbe96d761	-0.29461196
148	0xbe3083e4	-0.17237812
149	0xbf38a59e	-0.7212771
150	0xbf205e46	-0.6264385
151	0x3e349ef9	0.17638768
152	0x3db3839e	0.08765338
153	0x3d872e72	0.066006556
154	0xbdec9da7	-0.11553507
155	0x3b86221a	0.0040934207
156	0xbd747741	-0.059684042
157	0x3e285a8c	0.16440791
158	0xbf2f969b	-0.6858918
159	0xbf192275	-0.598182
160	0xbdd8d54d	-0.10587559
161	0x3e58ff0c	0.21191043
162	0xbe4ecbae	-0.20194885
163	0xbe84a75f	-0.25908944
164	0x3b9fdd24	0.004878657
165	0x3c44be22	0.012008222
166	0xbf847b4c	-1.0350127
167	0x3e9b33e4	0.30313027
168	0xbdd33e6d	-0.10314641
169	0x3cdeb08b	0.027183792
170	0x3d6370cf	0.055527505
171	0xbd7a85b3	-0.06116266
172	0xbde4383c	-0.11143538
173	0x3f1860de	0.5952281
174	0x3e76442f	0.24049447
175	0x3e9d55fe	0.3072967
176	0xbf906808	-1.1281748
177	0x3fddd9e3	1.7332119
178	0x3e650884	0.2236653
179	0xbec07cd9	-0.3759525
180	0xbf4cb8bc	-0.7996938
181	0xbe18cb6f	-0.14921354
182	0x3eb9f3c2	0.36318785
183	0xbf27678f	-0.6539239
184	0xbe840692	-0.25786263
185	0xbe3e77c0	-0.18600368
186	0xbcce89e0	-0.025212228
187	0x3d49f408	0.049304992
188	0xbe885631	-0.2662826
189	0x3ecadc90	0.396214
190	0x3c17d1ae	0.0092663
191	0xbdee6d95	-0.11641995
192	0x3e4145ee	0.18874332
193	0x3d9a05a9	0.07520611
194	0xbd59ed38	-0.053204745
195	0xbdf69205	-0.1203957
196	0xbdd98422	-0.106209055
197	0xbd2a80f1	-0.041626874
198	0xbe1e0b54	-0.15434009
199	0x3e178f4e	0.1480076
200	0x3dd5bda4	0.10436562
201	0xbe024b5a	-0.12724057
202	0x3c7dd352	0.015492277
203	0x3d7d8636	0.06189557
204	0xbd52f1e6	-0.051500224
205	0x3dbef554	0.093241364
206	0xbe30717b	-0.1723079
207	0x3d91fb04	0.071279556
208	0xbe19984e	-0.14999506
209	0x3e062186	0.13098726
210	0xbe4b7364	-0.19868237
211	0x3d4ac6a1	0.049505834
212	0xbe0db8bd	-0.13840003
213	0xbe3bab9f	-0.18327187
214	0x3e4d663d	0.20058532
215	0xbcb1e63c	-0.02171623
216	0xbe080f98	-0.13287199
217	0xbe374468	-0.17897189
218	0xbdce6fb1	-0.10079897
219	0xbc5dbe92	-0.013534205
220	0xbe325bc7	-0.17417823
221	0xbe9beb9a	-0.30453187
222	0xbcdb34d3	-0.026758587
223	0x3ddf4f60	0.109038115
224	0x3a83edd7	0.0010065389
225	0x3da11c88	0.0786677
226	0xbe28175e	-0.16415164
227	0xbd9dc4bc	-0.0770354
228	0xbe03ee47	-0.12883864
229	0xbd5a2848	-0.05326107
230	0xbc9c73b4	-0.01909814
231	0x3f63fea9	0.89060456
232	0xbe919f3d	-0.28441802
233	0xbeba23f4	-0.36355555
234	0xbf4e6a47	-0.80630916
235	0x3ebfad58	0.37436938
236	0xbe49ce36	-0.1970757
237	0xbeae238f	-0.34011504
238	0x3d9e16ba	0.077191785
239	0x3e938ccb	0.28818354
240	0x3db453e3	0.088050626
241	0x3e010c9c	0.12602466
242	0x3e4d44be	0.20045754
243	0xbdda78e5	-0.1066759
244	0x3bbbb7f2	0.005728715
245	0x3e008fe4	0.1255489
246	0x3e50fd3d	0.20409103
247	0xbe33f6dd	-0.1757464
248	0xbe536287	-0.20643054
249	0xbe5dedfd	-0.21672817
250	0xbd42a101	-0.047516827
251	0xbda3c1c2	-0.07995941
252	0xbcc4579d	-0.023967559
253	0xbf36fb26	-0.7147697
254	0x3e40fb6d	0.18845911
255	0x3f59a326	0.8501457

3.bias f4 [64]
0	0x3ea7e4d8	0.3279178
1	0x3ee38fcf	0.44445655
2	0x3df5fb21	0.1201079
3	0x3e258f6d	0.16167994
4	0x3d1ac4ac	0.037785217
5	0x3e1cb92a	0.1530501
6	0x3ea81687	0.32829687
7	0x3ebc69e0	0.36799526
8	0x3ebe2306	0.37136096
9	0x3eaa9c34	0.333223
10	0x3cc0d332	0.023538206
11	0x3dd1e7e0	0.10249305
12	0x3da942c0	0.08264685
13	0x3d490d32	0.04908485
14	0x3ef5a9a9	0.47981003
15	0xbe8225f0	-0.2541957
16	0x3e1ce7e5	0.15322836
17	0x3e76dc71	0.24107529
18	0x3e4af5e8	0.19820368
19	0x3ee8fd9c	0.4550599
20	0x3e378b87	0.17924319
21	0x3ece26fc	0.40264118
22	0x3ed9eb84	0.42562497
23	0x3d5da491	0.05411202
24	0x3e35515a	0.17706814
25	0x3ecf8ef5	0.40538755
26	0x3ede23de	0.4338674
27	0x3e9f4b0c	0.31111944
28	0x3e8f81dd	0.28028765
29	0x3ed30709	0.41216305
30	0xbcad33ee	-0.021142926
31	0x3cc68feb	0.024238547
32	0x3ded6ec1	0.1159339
33	0x3ee3f026	0.44519156
34	0x3eb53241	0.35389903
35	0x3e069f7c	0.13146776
36	0x3ea8f26d	0.32997456
37	0x3ee9c134	0.45655215
38	0x3e89669a	0.2683609
39	0x3f45863e	0.7715796
40	0x3f34fd27	0.7069878
41	0x3e56b84a	0.20968738
42	0x3e8a6ade	0.27034658
43	0x3ee191ac	0.4405645
44	0x3daea482	0.08527471
45	0x3f3deec9	0.7419248
46	0x3e41c6dd	0.18923517
47	0x3e8add0c	0.2712177
48	0x3eda5d57	0.42649338
49	0x3e18cfc2	0.14923003
50	0x3e4b8c62	0.1987777
51	0x3f06b2af	0.526164
52	0x3e434b97	0.19071804
53	0x3e221529	0.15828384
54	0x3dc6133b	0.09671637
55	0x3db4b5a1	0.088237055
56	0x3f0bdead	0.5463665
57	0x3efc127f	0.4923286
58	0x3efc91fa	0.4933012
59	0x3f05a1c8	0.52199984
60	0x3ec267ee	0.37969917
61	0x3e5b0b18	0.2139095
62	0x3c22a28d	0.00992645
63	0x3e361a9e	0.17783591

3.weight f4 [64, 64]
0	0xbd123bf1	-0.035701696
1	0x3db7e2c0	0.08978796
2	0x3c9b1433	0.01893053
3	0x3ccc0347	0.024903907
4	0x3ba54acd	0.0050443173
5	0x3df20c66	0.11818771
6	0xbe9eaee9	-0.3099282
7	0xbedf10c9	-0.43567494
8	0xbcd9e0bd	-0.026596421
9	0x3d2f7925	0.04284014
10	0xbf2fc295	-0.68656284
11	0xbee8a484	-0.45438015
12	0x3db7b9ba	0.089709714
13	0x3cf58f8a	0.029975671
14	0xbc7f0527	-0.015565193
15	0xbf0e82ff	-0.55668634
16	0x3d830c1e	0.063987955
17	0xbe13fadb	-0.14451163
18	0x3dc6b2b0	0.09702051
19	0x3d9e36cd	0.07725296
20	0x3e058a54	0.13041049
21	0x3dc8650f	0.097849004
22	0x3e01cb46	0.12675199
23	0xbb31aa12	-0.0027109426
24	0xbee23482	-0.44180685
25	0xbbe73588	-0.007055942
26	0xbc3a04ea	-0.011353711
27	0xbef7f677	-0.48430225
28	0xbe8083ff	-0.25100705
29	0xbf6dba4a	-0.9286238
30	0xbe299fe0	-0.16564894
31	0x3da55db6	0.080745146
32	0x3c5cbc0c	0.013472568
33	0xbe99ec12	-0.3006292
34	0xbf067d22	-0.5253469
35	0xbc9d71e6	-0.01921935
36	0xbe722860	-0.23648214
37	0x3e5414cc	0.20711058
38	0xbeb63e40	-0.35594368
39	0x3e454ad8	0.19266832
40	0xbe959356	-0.2921397
41	0x3e402a06	0.1876603
42	0x3ce1b271	0.027550908
43	0xbdb2e9b5	-0.08735982
44	0xbefc1b30	-0.49239492
45	0xbf11eacf	-0.56998914
46	0xbf1607b7	-0.5860552
47	0xbecefc31	-0.40426782
48	0x3cb3d19f	0.021950541
49	0x3de6eac3	0.11275246
50	0x3df803bc	0.12110087
51	0x3ee9db69	0.4567521
52	0xbf9505d4	-1.1642404
53	0xbd9f5302	-0.07779504
54	0x3c04237a	0.008065099
55	0xbe3ff52c	-0.1874587
56	0xbee4e1f0	-0.44703627
57	0xbab46690	-0.0013763476
58	0x3e2bdd0b	0.1678354
59	0x3cfa8a04	0.03058339
60	0xbc457789	-0.012052425
61	0xbccec722	-0.025241438
62	0xbedfa8f5	-0.4368359
63	0x3e49a02d	0.19690008
64	0x3df8f61c	0.12156317
65	0x3bedcdeb	0.0072572134
66	0xbc3c3807	-0.011487967
67	0xbc4c9530	-0.012486741
68	0xbc57261c	-0.013131645
69	0xbd84b82a	-0.06480439
70	0xbf2992bf	-0.6623954
71	0xbf0ccb7b	-0.54997987
72	0xbdf10366	-0.11768226
73	0x3d11cef1	0.035597745
74	0xbf296402	-0.66168225
75	0xbf469ab4	-0.7757981
76	0x3dd3aef9	0.10336108
77	0xbd5e5d5c	-0.054288253
78	0x3d18cf11	0.03730685
79	0xbf7482f6	-0.9551233
80	0x3d31f9df	0.043451186
81	0xbc55ad4a	-0.013041804
82	0xbd86a212	-0.06573881
83	0xbcfcd243	-0.03086198
84	0x3b4ccaf1	0.0031248892
85	0x3da79ab3	0.081838034
86	0xbd032ec0	-0.032027006
87	0x3c9e7ffd	0.019348139
88	0x3dcfec10	0.10152447
89	0x3c39abbf	0.011332451
90	0xbb87e083	-0.004146637
91	0xbf0a46d5	-0.5401433
92	0xbf5d9ded	-0.865691
93	0x3d9724f4	0.07380095
94	0xbde4eda7	-0.11178141
95	0xbc60e699	-0.013726854
96	0xbc9223f6	-0.017839413
97	0xbf242ef3	-0.6413414
98	0xbf520f53	-0.8205463
99	0x3e1ad379	0.15119733
100	0xbe80b419	-0.25137404
101	0x3bbf21d8	0.005832892
102	0xbf0a45d2	-0.5401279
103	0xbe0250d8	-0.12726152
104	0xbf296664	-0.6617186
105	0x3eadd610	0.3395238
106	0x3d2da0ac	0.042389557
107	0xbd42fd28	-0.04760471
108	0xbf11b836	-0.5692171
109	0xbf9232a1	-1.1421701
110	0xbf580a10	-0.84390354
111	0xbf0ff24b	-0.56229085
112	0xbd3dfeb1	-0.04638547
113	0xbe43e882	-0.19131663
114	0xbd43b79b	-0.04778252
115	0x3d3fa017	0.046783533
116	0xbc81a0b1	-0.015823694
117	0xbe46f025	-0.19427545
118	0x3c423ce3	0.011855337
119	0xbf4150fa	-0.75514185
120	0xbf3d39f9	-0.73916584
121	0xbd0fa0fc	-0.035065636
122	0xbc08d68e	-0.008351935
123	0x3dae43d1	0.08509029
124	0xbd2087ac	-0.039191887
125	0x3c7e1eee	0.015510304
126	0xbf424048	-0.75879335
127	0x3d2407b1	0.040046398
128	0x3cde57bb	0.027141443
129	0xbc6c7139	-0.014431291
130	0xbe2bf2ab	-0.16791789
131	0xbdc655bd	-0.09684322
132	0xbc25e8ce	-0.010126306
133	0xbdba193e	-0.09086846
134	0xbe1f7d1d	-0.1557507
135	0x3e83fbc4	0.2577802
136	0x3e04e21a	0.12976876
137	0xbe5ae24b	-0.21375386
138	0x3cdc2653	0.026873743
139	0x3e32655b	0.17421477
140	0x3e16bc57	0.14720283
141	0xbde5c2bc	-0.11218783
142	0xbe51d7c6	-0.20492467
143	0xbf20c44f	-0.62799543
144	0xbdb8c868	-0.090225995
145	0xbd93b037	-0.07211345
146	0x3e01446d	0.12623759
147	0xbc59a407	-0.013283736
148	0xbde940ed	-0.11389337
149	0xbe2fe39a	-0.17176667
150	0xbe5b95b4	-0.21443826
151	0xbe0a476d	-0.1350381
152	0xbd462639	-0.048376296
153	0xbdfc8f1f	-0.12331986
154	0xbd912c79	-0.070885606
155	0x3e681ec6	0.22667989
156	0x3d6cfbbb	0.057857256
157	0xbe53866c	-0.20656747
158	0xbd5bcc47	-0.05366161
159	0xbdea95d7	-0.11454361
160	0x3cc7f4be	0.024408694
161	0xbcb817cc	-0.022472285
162	0x3e88f9f0	0.26753187
163	0x3e3a5ddd	0.18199869
164	0xbd962f24	-0.0733321
165	0xbd8995ae	-0.06718002
166	0xbe698e80	-0.22808266
167	0xbd887993	-0.066638134
168	0xbd9dae49	-0.07699258
169	0x3e25a71c	0.16177028
170	0xbd898d24	-0.067163736
171	0xbd4a5330	-0.04939574
172	0x3e07e53f	0.13271044
173	0x3e549a21	0.2076192
174	0xbc13790f	-0.009001031
175	0x3e13ce2b	0.14434116
176	0xbe219833	-0.15780716
177	0x3d357d5a	0.044308998
178	0xbda91e1a	-0.082576945
179	0xbddb0403	-0.106941245
180	0xbcb08287	-0.021546615
181	0x3e57c15a	0.21069852
182	0xbc981c42	-0.018568162
183	0x3af9fbdc	0.0019072252
184	0xbe26a3c2	-0.16273406
185	0xbed55246	-0.41664332
186	0xbdc8cdc0	-0.09804869
187	0xbdfdd007	-0.12393194
188	0xbd5b79b2	-0.053582855
189	0xbd4d6e4d	-0.05015402
190	0x3e0304fd	0.12794872
191	0xbcb7480a	-0.022373218
192	0xbc1fb2b7	-0.009747199
193	0xbe84c924	-0.25934708
194	0xbe3d2783	-0.18472104
195	0xbe10637a	-0.14100447
196	0xbeacc5d9	-0.33744696
197	0x3d278ebd	0.04090761
198	0x3def585a	0.116867736
199	0x3aba8c07	0.0014232405
200	0x3e0e985e	0.13925311
201	0x3cf25ac5	0.029584298
202	0x3e184d3f	0.14873217
203	0x3de359bd	0.111011006
204	0xbda6cd5f	-0.0814464
205	0x3c50a432	0.01273446
206	0xbdfd9f36	-0.12383883
207	0x3e50ad9d	0.20378728
208	0xbe573b36	-0.21018681
209	0x3c3d6432	0.011559533
210	0xbd5ea917	-0.054360475
211	0x3cca34a4	0.024683304
212	0x3d9e069b	0.07716104
213	0xbdc19986	-0.094531104
214	0xbe47acf6	-0.19499573
215	0xbc53cf64	-0.012927864
216	0xbd84f761	-0.06492496
217	0xbe86263d	-0.26201048
218	0xbd79f8c0	-0.061028242
219	0x3da4fa3b	0.0805554
220	0x3d90d812	0.07072462
221	0xbe59cf7e	-0.21270558
222	0x3e69e002	0.22839358
223	0xbe79d77e	-0.2439861
224	0xbe7c5641	-0.24642278
225	0x3e0d80b1	0.13818623
226	0x3e2bc704	0.16775137
227	0x3ba1899d	0.004929735
228	0x3da48565	0.080332555
229	0xbe8aa8ca	-0.270819
230	0xbd4ce5c2	-0.0500238
231	0xbcc28d22	-0.023748938
232	0xbc1b875d	-0.009492722
233	0xbbdf23dd	-0.006809695
234	0xbdd6498a	-0.10463245
235	0xbee8ce55	-0.4546992
236	0x3e0070c3	0.12543015
237	0x3d67376f	0.05644935
238	0x3e0b466a	0.1360108
239	0xbc56ef9a	-0.013118649
240	0xbe03709b	-0.12835924
241	0xbe791313	-0.24323682
242	0xbe942ab5	-0.28938833
243	0xbe070a86	-0.13187608
244	0xbeab0266	-0.33400267
245	0x3e2b018e	0.16699812
246	0x3d11a2b2	0.03555555
247	0xbc5ce43b	-0.013482149
248	0xbdced0db	-0.1009843
249	0xbe0bfd78	-0.1367091
250	0xbe1b54ee	-0.15169117
251	0xbe112d1e	-0.14177367
252	0xbcbca5ca	-0.023028273
253	0xbe00439a	-0.12525788
254	0x3db35a91	0.087575085
255	0xbe2cd54d	-0.16878243

6.weight f4 [1, 64]
0	0x3ead99a0	0.3390627
1	0x3ecf75e4	0.4051963
2	0xbe7e14fc	-0.24812692
3	0xbe72e8e3	-0.23721652
4	0x3e3a1db2	0.1817539
5	0x3e42c454	0.19020206
6	0xbee49808	-0.4464724
7	0xbe482b2b	-0.19547717
8	0x3e8cf0f6	0.2752759
9	0x3e025743	0.127286
10	0xbe09a507	-0.13441859
11	0xbe92d03e	-0.286745
12	0xbeda0667	-0.4258301
13	0xbe29dcfb	-0.16588204
14	0xbddd4936	-0.108049795
15	0x3e50b087	0.2037984
16	0x3e32a375	0.17445166
17	0x3dd58ab6	0.10426848
18	0x3e053959	0.13010158
19	0x3e2b3389	0.16718878
20	0x3ddea6cd	0.108716585
21	0x3e02b800	0.12765503
22	0x3e9ed0ef	0.3101878
23	0xbec40e4b	-0.38292155
24	0xbe40fdc8	-0.1884681
25	0x3d9d6c44	0.07686666
26	0xbe10c958	-0.14139307
27	0x3e7a5d5e	0.2444968
28	0x3d7af467	0.061268236
29	0x3df4ac7c	0.11946961
30	0x3dbe5105	0.09292797
31	0xbe89f644	-0.26945698
32	0x3e29da46	0.16587171
33	0x3e87457e	0.26420206
34	0x3dc68e76	0.09695141
35	0xbe8344a5	-0.2563831
36	0xbe44c6f2	-0.19216517
37	0x3de3b4a7	0.11118441
38	0x3db0c678	0.08631605
39	0x3e23446d	0.15944071
40	0x3e54ec06	0.20793161
41	0x3e1ed2ec	0.15510148
42	0xbea33d15	-0.3188254
43	0xbe7ab316	-0.24482378
44	0xbea51981	-0.3224602
45	0x3dc8b9f3	0.09801092
46	0xbe851104	-0.25989544
47	0xbe258031	-0.16162182
48	0xbe0d8763	-0.13821177
49	0x3e59daf6	0.21274933
50	0xbea763bd	-0.32693282
51	0x3e4aa58e	0.19789717
52	0x3dac35fa	0.08408733
53	0xbe4ee825	-0.20205744
54	0x3e046a93	0.1293128
55	0x3e4a5555	0.19759114
56	0xbe9e5e01	-0.30931094
57	0xbe4a876c	-0.19778222
58	0x3e352621	0.17690326
59	0x3ef1b7da	0.4721058
60	0x3df1907d	0.11795137
61	0xbe1a6c7b	-0.15080445
62	0xbe5fe394	-0.21864158
63	0xbf0f1bdb	-0.5590188
